checkpoint (2).pth (torch_old, 28333 bytes, 6 tensors)

fc1.weight f4 [64, 37]
0	0xbcd33166	-0.025780391
1	0x3c887580	0.01665759
2	0xbb42a4e3	-0.002970033
3	0xbd8a93c8	-0.06766468
4	0x3c8bd66e	0.017070021
5	0x3da49cec	0.08037743
6	0x3d734eeb	0.059401434
7	0x3dfeaf93	0.12435832
8	0x3c7adc79	0.015311354
9	0x3ddc214a	0.10748537
10	0x3ea9d6bf	0.3317165
11	0xbf4d6091	-0.80225474
12	0xbe458561	-0.19289161
13	0xbea0bebb	-0.31395516
14	0xbfddffc0	-1.7343674
15	0xbbba0b5b	-0.005677623
16	0x3c4dfaa2	0.012571963
17	0x3d66c1fd	0.056337345
18	0x3e1535d1	0.1457131
19	0x3d2aef3e	0.041732065
20	0x3e11be3f	0.1423273
21	0x3e13ffae	0.14453003
22	0x3d65aa4c	0.05607061
23	0x3bbec2c2	0.005821557
24	0xbd9d1329	-0.0766967
25	0xbd516cda	-0.0511292
26	0x3c8d3b22	0.01724011
27	0x3bc9dad1	0.006160118
28	0xbb994f94	-0.004678676
29	0x3cac02cc	0.020997427
30	0xbce2ffed	-0.027709926
31	0x3e0c0573	0.13673954
32	0xbd980612	-0.07423033
33	0xbc9e88eb	-0.019352397
34	0xbd4c3193	-0.049851965
35	0x3bb19d4e	0.0054203635
36	0x3ba8ca58	0.0051510744
37	0x3dbfc17b	0.09363075
38	0x3e641abb	0.22275822
39	0x3e01e118	0.12683523
40	0x3e018393	0.12647848
41	0x3e1b60b1	0.15173604
42	0x3e6fba0b	0.23410814
43	0xbdb9b12e	-0.090669975
44	0xbe4f75f5	-0.20259841
45	0xbe8d1b18	-0.27559733
46	0xbf2351ed	-0.63796884
47	0x3e4e24e5	0.20131262
48	0x3d2082c7	0.03918722
49	0x3d6d064a	0.057867326
50	0x3c6b2155	0.014351209
51	0x3e410365	0.18848951
52	0x3e512bbe	0.20426843
53	0x3b7969eb	0.0038057517
54	0x3dc6c5db	0.09705707
55	0x3cdb17f6	0.026744824
56	0xbe177e9c	-0.14794391
57	0x3d650789	0.05591539
58	0xbdb843a4	-0.089972764
59	0xbdc3e7dd	-0.09565709
60	0xbd7f519e	-0.062333696
61	0xbd1c0350	-0.038089097
62	0x3c8d4dda	0.017249037
63	0xbd0a72ae	-0.033800773
64	0x3e224061	0.15844871
65	0x3ce15e0f	0.027510671
66	0x3e0202ef	0.12696432
67	0x3e1bda73	0.1522005
68	0x3d731192	0.05934293
69	0x3e1398da	0.14413777
70	0x3d7e089c	0.06201993
71	0x3d57610d	0.05258279
72	0x3c609176	0.013706556
73	0xbaa3206d	-0.0012445577
74	0x3e8cfd96	0.2753722
75	0x3decc5fc	0.115612
76	0x3db13907	0.08653455
77	0xbeb2fcbe	-0.34958452
78	0xbdd58629	-0.1042598
79	0xbe921b90	-0.28536654
80	0x3e023d12	0.12718609
81	0x3e289950	0.16464734
82	0x3e01fb8b	0.12693612
83	0xbf486f8d	-0.78295213
84	0xbca9275b	-0.020648649
85	0x3e11d5c2	0.14241698
86	0xbb9fe705	-0.0048798346
87	0xbe144b2e	-0.14481804
88	0x3b3d8b2e	0.002892207
89	0xbee92719	-0.45537642
90	0x3e03664f	0.12831996
91	0x3db94851	0.090469964
92	0x3e8b5947	0.2721655
93	0xbdf7b950	-0.120958924
94	0xbe5529dd	-0.20816751
95	0x3d14ba75	0.03631063
96	0x3e78b2bd	0.24286933
97	0xbea80cb7	-0.328222
98	0xbde57124	-0.112032205
99	0xbe064471	-0.13112046
100	0x3e69617a	0.2279109
101	0x3e211816	0.15731844
102	0xbe37feb0	-0.1796825
103	0xbea4f142	-0.32215315
104	0xbe94c417	-0.29055855
105	0xbcb1fd81	-0.021727325
106	0x3d61ab0d	0.055094767
107	0xbe89e8c3	-0.26935396
108	0xbec5b61b	-0.38615498
109	0x3d733371	0.05937523
110	0xbc0533df	-0.008130043
111	0x3e585937	0.21127783
112	0x3d9b0cae	0.07570778
113	0x3d9af4c8	0.075662196
114	0xbd308867	-0.043098833
115	0xbe1ff914	-0.1562236
116	0xbd988e62	-0.07449032
117	0x3d07989c	0.033104524
118	0x3dbfb9bd	0.09361599
119	0x3d133dfe	0.035947792
120	0x3e27451d	0.16334958
121	0x3d3f17f8	0.046653718
122	0xbcdeb146	-0.02718414
123	0x3c66c6c2	0.0140854735
124	0xbe0868ee	-0.13321277
125	0xbd19913e	-0.03749203
126	0xbc891ec5	-0.016738305
127	0xbe17cc3e	-0.14824006
128	0x3cb1a7d9	0.021686481
129	0xbdad2a98	-0.0845539
130	0xbd7f33a2	-0.0623051
131	0x3e2afb4f	0.16697429
132	0xbe41276e	-0.18862697
133	0x3d89dce1	0.067315824
134	0xbd8eaf99	-0.06967086
135	0xbeaa4a94	-0.33260024
136	0xbd3d3b97	-0.046199407
137	0xbe0d4efa	-0.13799658
138	0x3e291659	0.16512431
139	0x3e56632c	0.20936269
140	0x3e8aa9bc	0.27082622
141	0x3e15aed2	0.1461747
142	0x3e82ec94	0.2557112
143	0xbde0ac0f	-0.109703176
144	0xbd989024	-0.07449368
145	0xbf1c1e7a	-0.60984004
146	0x3d0536c4	0.03252293
147	0xbc39e257	-0.0113454675
148	0xbc197590	-0.009366408
149	0xbda70f4a	-0.08157213
150	0xbe728945	-0.23685177
151	0xbe06d0a5	-0.13165529
152	0xbdd722cb	-0.10504683
153	0x3e892ff5	0.267944
154	0x3dc546cb	0.09632643
155	0xbdbccdc3	-0.092189334
156	0xbdfbedd1	-0.12301219
157	0xbf353b4a	-0.7079359
158	0x3e32b7e7	0.17452966
159	0xbdc3f60a	-0.095684126
160	0xbd9a0e6d	-0.07522283
161	0xbe85e51a	-0.26151353
162	0xbee5b78f	-0.44866607
163	0xbe04a0ee	-0.12952015
164	0x3d54cf20	0.051955342
165	0xbc37ff56	-0.01123031
166	0x3b9572b5	0.0045607933
167	0x3e02bc7e	0.12767217
168	0xbd7ac5b2	-0.061223693
169	0xbd972395	-0.073798336
170	0x3d9fb6c9	0.077985354
171	0x3e0ef705	0.13961418
172	0x3e90b82b	0.2826551
173	0x3da630d0	0.08114779
174	0x3d7e62ad	0.062105823
175	0x3d41efc1	0.047347788
176	0xbab714b4	-0.0013967962
177	0xbe9a29a9	-0.3010991
178	0xbc025312	-0.007954376
179	0x3cbb3178	0.022850737
180	0x3df4ebe7	0.11959057
181	0x3e1137d9	0.1418146
182	0x3e87a23f	0.2649097
183	0x3bc9ecf4	0.00616228
184	0x3bd6a75f	0.006550714
185	0xbc387af9	-0.011259788
186	0xbd738412	-0.059452124
187	0x3cd67420	0.02617842
188	0x3cfe524b	0.0310451
189	0xbd02a960	-0.03189981
190	0x3df4b2c9	0.11948163
191	0x3d03293c	0.032021746
192	0x3dc78e57	0.09743946
193	0x3cc6c0b4	0.02426181
194	0xbf0b3580	-0.5437851
195	0xbdfe8072	-0.12426843
196	0xbdca98da	-0.09892435
197	0x3dc9be28	0.098507226
198	0xbc8e2bdd	-0.0173549
199	0x3dc31298	0.09525031
200	0xbdb81509	-0.08988387
201	0x3e28d251	0.1648648
202	0xbe171a7a	-0.14756194
203	0x3e1a10bf	0.1504545
204	0xbc3052c7	-0.010761923
205	0x3e2a721e	0.16645095
206	0x3c6ef869	0.014585593
207	0x3ca6dafa	0.020368088
208	0x3d3775e0	0.04479015
209	0xbe8eb6c4	-0.27873814
210	0xbdd81d1c	-0.10552427
211	0x3e3beab6	0.18351254
212	0xbd29800e	-0.041381888
213	0xba7f996d	-0.000975034
214	0x3d579276	0.05262991
215	0x3cc424f6	0.023943406
216	0xbda8b887	-0.08238321
217	0xbcb33242	-0.02187455
218	0x3d538262	0.051638015
219	0xbe851bad	-0.25997677
220	0x3d7817b1	0.06056947
221	0x3cebc0fc	0.028778546
222	0xbc94341b	-0.018091252
223	0x3d85eff1	0.06539906
224	0x3b9f5ee4	0.0048636068
225	0x3d2291ab	0.0396897
226	0x3d236a71	0.039896432
227	0xbd87edfd	-0.066371895
228	0x3d2ad20f	0.041704234
229	0xbda42693	-0.0801517
230	0x3d1efdd8	0.038816303
231	0x3e41845c	0.18898147
232	0xbce5e06c	-0.028061114
233	0x3e4e0819	0.20120277
234	0x3dea4765	0.11439399
235	0xbd10db8a	-0.03536562
236	0xbc49d002	-0.012317659
237	0xbd852c03	-0.06502535
238	0xbbfd0dac	-0.007722577
239	0x3922c846	0.00015524132
240	0xbcd334d9	-0.025782036
241	0x3cbcdd0d	0.023054624
242	0xbde13de4	-0.10998133
243	0x3d95d099	0.073151775
244	0x3bf1351b	0.007361067
245	0xbc68952f	-0.014195724
246	0x3ebbbc7e	0.36667246
247	0xbd6c17aa	-0.057639755
248	0xbdcc382a	-0.0997165
249	0x3b9e3bd1	0.004828908
250	0x3d968930	0.07350385
251	0xbd535349	-0.0515931
252	0x3ec6327b	0.3871039
253	0xbee5e3f3	-0.44900474
254	0xbeb0d469	-0.34537056
255	0xbe744c3e	-0.23857209

fc1.bias f4 [64]
0	0x3e1b1905	0.15146263
1	0x3d950403	0.07276156
2	0xbd8aba0c	-0.06773767
3	0xbd7dea6c	-0.06199114
4	0x3e655f0a	0.22399536
5	0xbd3e681a	-0.046485998
6	0xbc94974c	-0.01813855
7	0x3dfb9a38	0.12285274
8	0xbd73ac1b	-0.059490304
9	0xbe2079a6	-0.15671405
10	0x3e92832a	0.28615695
11	0x3e697a21	0.22800495
12	0x3e16887e	0.14700505
13	0x3e4bc35d	0.19898744
14	0xbd22f7b0	-0.039786994
15	0xbd1d21de	-0.038362376
16	0x3d1e98ad	0.03871982
17	0x3d1158ec	0.035485193
18	0xbca13b1d	-0.019681508
19	0xbdcc734b	-0.09982928
20	0xbd9ae836	-0.07563822
21	0x3db0c5f7	0.08631509
22	0xba51fbd4	-0.00080102426
23	0xbdf0480f	-0.11732494
24	0xbe130dd1	-0.1436074
25	0x3e1c4d9b	0.15263979
26	0xbd76f9cb	-0.060296815
27	0xbdf739e1	-0.120715864
28	0x3dafd953	0.08586373
29	0x3d11636f	0.035495218
30	0xbd1384a0	-0.036015153
31	0xbe56caf1	-0.20975854
32	0x3e38df32	0.18053892
33	0x3d0cecd8	0.03440556
34	0xbd1d6a09	-0.0384312
35	0x3d3194d1	0.043354813
36	0xbbb2d607	-0.005457643
37	0x3d66eada	0.056376316
38	0xbc20ce0a	-0.009814749
39	0xbd9acfbb	-0.07559153
40	0xbda87348	-0.08225113
41	0xbe0392df	-0.12848996
42	0xbd945bc5	-0.07244066
43	0x3e52451a	0.20534173
44	0xbd2ce135	-0.04220696
45	0xbd5ce045	-0.053924818
46	0x3d92ac3a	0.07161756
47	0xbe274f2a	-0.16338792
48	0xbe09e439	-0.13465966
49	0x3c9a959b	0.018870166
50	0xbde3ba98	-0.11119574
51	0x3d665a5b	0.056238513
52	0xbd7025a0	-0.058629632
53	0xbde42bf4	-0.11141196
54	0xbe4301db	-0.19043677
55	0xbb7c370c	-0.003848496
56	0x3daf9583	0.08573439
57	0xbdb62f66	-0.08895759
58	0xbd9abea0	-0.0755589
59	0xbe3dacaa	-0.18522897
60	0xbc911085	-0.017708072
61	0xbd030f79	-0.031997178
62	0xbba4dd62	-0.0050312737
63	0x3da9cebc	0.082913846

fc2.weight f4 [64, 64]
0	0x3d7ccac4	0.06171681
1	0x3daa6516	0.08320062
2	0x3b9a8252	0.0047152424
3	0x3e0b8a1e	0.13626906
4	0x3da32953	0.07966866
5	0xbda22d4c	-0.07918796
6	0x3e96444a	0.29348975
7	0xbd0a71f8	-0.033800095
8	0xbde15392	-0.11002268
9	0xbd65740c	-0.056018874
10	0x3ce3ece2	0.027822915
11	0xbebb43c6	-0.36575145
12	0xbe0173b5	-0.12641795
13	0x3e12b32e	0.14326164
14	0xbd1b31c3	-0.037889253
15	0xbc000bd1	-0.007815317
16	0xbde7cbd3	-0.11318173
17	0xbe8a94d1	-0.27066663
18	0x3dc4a754	0.09602228
19	0x3dd73de1	0.10509849
20	0xbc78b55d	-0.015179959
21	0xbe1ed170	-0.15509582
22	0xbdc9d2ee	-0.09854685
23	0xbdd93d79	-0.10607428
24	0x3af3e48b	0.001860754
25	0xbd16823b	-0.03674529
26	0x3ea80424	0.3281566
27	0xbd35447b	-0.04425476
28	0xbd5ac238	-0.053407878
29	0xbd7ca6c3	-0.061682474
30	0xbe1a3e20	-0.15062761
31	0x3dba9cff	0.09111976
32	0xbd4da05e	-0.050201766
33	0x3ca4136d	0.020028794
34	0x3dba7e24	0.09106091
35	0xbd8621d1	-0.06549419
36	0xbe519b3f	-0.20469378
37	0x3eb6b22a	0.35682803
38	0x3e4c0879	0.19925107
39	0x3e032029	0.12805237
40	0xbd793036	-0.060836993
41	0xbe0ab7c2	-0.1354666
42	0x3df902f8	0.12158769
43	0xbde863d5	-0.113471664
44	0xbd490878	-0.049080342
45	0xbf1bd372	-0.60869515
46	0xbef5edaa	-0.48032886
47	0xbb93bec2	-0.004508824
48	0xbda2fc20	-0.07958245
49	0xbd6fa96b	-0.05851118
50	0x3d74dca4	0.05978073
51	0x3da79703	0.081831
52	0xbd232e73	-0.03983922
53	0x3dce263b	0.10065886
54	0xbdd1bd7f	-0.10241222
55	0x3da750f6	0.08169739
56	0x3edb2c06	0.42807025
57	0x3c2736ed	0.010205966
58	0xbe48fa2f	-0.19626687
59	0xbd3209b3	-0.04346628
60	0x3d77f111	0.060532633
61	0xbd07b1d8	-0.03312859
62	0x3d0e374a	0.034720697
63	0x3d6973b9	0.056995127
64	0x3da8fe7f	0.08251666
65	0x3e091d50	0.13390088
66	0xbe9821cd	-0.29713288
67	0xbd3d6cb6	-0.046246253
68	0x3d26df96	0.040740572
69	0xbbc110b0	-0.005891882
70	0xbea278e2	-0.3173285
71	0x3e283e43	0.16430001
72	0xbe671fd5	-0.22570737
73	0xbdabc6cd	-0.083875276
74	0xbdf3b874	-0.11900416
75	0x3eb9e8a1	0.36310294
76	0xbcfa00e4	-0.030518003
77	0x3d9a294a	0.075274065
78	0xbb3830fe	-0.0028105373
79	0x3d0621ed	0.032747198
80	0x3dbd7ec4	0.09252694
81	0x3e4bf0a3	0.19916014
82	0xbe0c6f3d	-0.13714309
83	0xbdeda01a	-0.116028026
84	0xbd1ed26f	-0.038774904
85	0xbd3665d0	-0.04453069
86	0x3e39e171	0.18152405
87	0xbe0f4cb9	-0.13994111
88	0xbd3e55f1	-0.04646868
89	0xbd3d2599	-0.046178434
90	0xbeea64a8	-0.4577992
91	0xbe28c73b	-0.1648225
92	0xbc8ecc19	-0.017431306
93	0xbde24c77	-0.11049741
94	0x3cd01871	0.02540228
95	0xbe064092	-0.13110569
96	0x3d84eea6	0.06490831
97	0xbc60c0fd	-0.013717887
98	0x3cf1ee0a	0.029532451
99	0x3de7b572	0.11313905
100	0xbc6099fc	-0.013708588
101	0xbdab7f9c	-0.08373949
102	0xbe10a17c	-0.14124101
103	0xbec68b10	-0.3877797
104	0xbdd95e48	-0.10613686
105	0x3dd41926	0.10356359
106	0xbc1b94d6	-0.0094959345
107	0xbda184c9	-0.07886655
108	0x3d1b68fc	0.037941918
109	0xbe9114bc	-0.28336132
110	0xbe25b080	-0.1618061
111	0xbdbbd796	-0.09171979
112	0xbd3a9bd2	-0.045558758
113	0x3d835e36	0.06414454
114	0xbe2cb35c	-0.16865295
115	0x3e195e37	0.14977346
116	0xbd753dfd	-0.05987357
117	0xbd9bf489	-0.07615001
118	0xbdbf5160	-0.09341693
119	0x3d3ff448	0.046863824
120	0xbd8cfb6e	-0.06883894
121	0x3c2faf4c	0.010722946
122	0x3e32bdb8	0.17455184
123	0xbcec9def	-0.028883902
124	0xbe5eeb49	-0.21769442
125	0x3c9c3762	0.019069377
126	0x3dcaff2c	0.099119514
127	0xbd8a44be	-0.06751393
128	0xbe923872	-0.2855869
129	0xbd2d56d5	-0.042319138
130	0x3e986eb0	0.29771948
131	0xbe36b9b0	-0.17844272
132	0x3e24f32e	0.1610839
133	0x3d1fec27	0.03904357
134	0xbe5046e0	-0.20339537
135	0xbe65dea7	-0.22448216
136	0x3da88738	0.08228916
137	0xbd9a5d3b	-0.075373136
138	0xbe2ba738	-0.16763008
139	0x3ea5d8c9	0.32391956
140	0x3e69c15f	0.22827671
141	0x3d3f5f42	0.046721704
142	0xbb6c03b6	-0.0036012954
143	0xbd1229dd	-0.035684455
144	0xbe3e1496	-0.1856254
145	0x3e8a7e83	0.27049646
146	0x3c5ea6b7	0.013589553
147	0xbdd045d5	-0.101695694
148	0xbcd6f431	-0.026239486
149	0x3d5ae0d5	0.053437073
150	0x3e1fcbd5	0.156051
151	0x3bb866e2	0.005627499
152	0xbdb2a24a	-0.087223604
153	0x3c1696e5	0.0091912495
154	0xbefcf055	-0.4940211
155	0x3d6a4e69	0.057203684
156	0xbd63eb87	-0.05564454
157	0xbc3368a9	-0.010950246
158	0x3d68fabf	0.056879755
159	0x3e16ad80	0.14714622
160	0xbe253f17	-0.16137348
161	0xbe386080	-0.18005562
162	0xbe5f128d	-0.2178442
163	0x3dd0fc61	0.102043875
164	0x3dc47ced	0.0959414
165	0xbca43277	-0.020043595
166	0xbe61c974	-0.22049505
167	0xbe22d609	-0.1590196
168	0x3c4960cf	0.012291147
169	0xbe2de69b	-0.169825
170	0x3dd13a18	0.10216159
171	0xbdfcc48f	-0.12342178
172	0xbe0a42b2	-0.13502005
173	0xbd716255	-0.058931667
174	0xbe2b871d	-0.1675076
175	0xbd4cb0c8	-0.04997328
176	0xbc93363a	-0.017970193
177	0x3d6214cc	0.055195615
178	0xbe958fbd	-0.29211226
179	0x3e720127	0.23633252
180	0xbc8a3f9f	-0.01687604
181	0xbe394d08	-0.18095791
182	0xbe390bec	-0.18070954
183	0xbe1a9b7e	-0.15098378
184	0xbcc6e870	-0.024280757
185	0xbdbbd128	-0.09170753
186	0x3e4b61df	0.19861554
187	0x3e25d698	0.16195142
188	0xbe645772	-0.22298983
189	0x3d5eab64	0.05436267
190	0x3e554aa3	0.20829253
191	0x3c2ef466	0.010678386
192	0x3ddbb491	0.107278
193	0xbd898acb	-0.06715926
194	0x3e0edd65	0.13951643
195	0xbe307cc9	-0.17235102
196	0x3da12073	0.07867517
197	0xbd939b1d	-0.0720732
198	0x3d685e2a	0.056730427
199	0x3e2c74d2	0.16841438
200	0xbeb7f00f	-0.35925338
201	0xbe01c1b5	-0.1267155
202	0xbb066b42	-0.0020510708
203	0xbd38a857	-0.045082416
204	0xbdc83f87	-0.09777742
205	0x3dd97d8d	0.1061965
206	0xbdeccebd	-0.1156287
207	0xbe177786	-0.14791688
208	0x3d217a28	0.039423138
209	0x3da7a4d5	0.08185736
210	0xbc6eee84	-0.014583234
211	0xbcdc142e	-0.026865091
212	0x3e585f29	0.2113005
213	0x3e605ad4	0.21909648
214	0xbe897e56	-0.268542
215	0x3e643eb0	0.22289538
216	0xbe55b6e4	-0.20870548
217	0x39d406da	0.00040440896
218	0xbe04f857	-0.12985359
219	0xbd10dabc	-0.03536485
220	0xbcf3cc21	-0.029760422
221	0xbe9881dd	-0.29786578
222	0x3db3161c	0.087444514
223	0x3e60c52b	0.21950214
224	0x3d9bee67	0.07613831
225	0x3dc7760c	0.097393125
226	0xbc68ca3d	-0.014208374
227	0x3ec0c77c	0.37652194
228	0xbe0cd508	-0.1375314
229	0x3e2b1bbc	0.16709799
230	0xbe9d7b06	-0.30757922
231	0x3e5b74dd	0.21431299
232	0x3e07b8a1	0.13254024
233	0xbea43db4	-0.32078326
234	0x3df69020	0.120392084
235	0xbe2cac3f	-0.16862582
236	0xbd918d0a	-0.07106979
237	0x3e2ac330	0.1667602
238	0xbe4054d8	-0.18782365
239	0xbe252b4b	-0.16129796
240	0x3d87bf3f	0.06628274
241	0xbce4539c	-0.0278719
242	0xbecf530f	-0.40493056
243	0xbe7447ad	-0.23855467
244	0x3e5690cd	0.20953675
245	0xbec64f63	-0.38732442
246	0xbee34228	-0.4438641
247	0x3dbc2f55	0.09188715
248	0xbd43d377	-0.04780909
249	0xbe839844	-0.25702107
250	0xbe9d2535	-0.3069245
251	0xbe526053	-0.20544557
252	0xbe02e948	-0.12784302
253	0xbdbffb05	-0.0937405
254	0x3e815752	0.25261933
255	0xbe7a7583	-0.2445889

fc2.bias f4 [64]
0	0x3d2c59df	0.042077895
1	0x3ca28d03	0.01984263
2	0x3d43a285	0.047762413
3	0xbcf573e7	-0.029962493
4	0x3d088b54	0.033336
5	0xbda912d9	-0.08255548
6	0xbdc67b26	-0.096914575
7	0x3d27a403	0.0409279
8	0x3e3ddafd	0.18540569
9	0x3ebe9dfc	0.37229908
10	0xbc4e64d8	-0.012597285
11	0x3e2fd7fe	0.17172238
12	0x3e606bb7	0.2191609
13	0xbd9fab90	-0.07796395
14	0xbdbabea2	-0.091183916
15	0xbd0ab094	-0.033859804
16	0xbcdeb890	-0.027187616
17	0xbd6a1831	-0.057151977
18	0xbdb9d966	-0.090746686
19	0x3ea50c33	0.3223587
20	0x3e206eca	0.15667263
21	0x3ecb01fa	0.39649945
22	0xbe12aa25	-0.14322717
23	0xbc2118c6	-0.009832567
24	0xbab2ec7d	-0.0013650801
25	0xbdaa4996	-0.08314817
26	0x3e062b9b	0.13102572
27	0xbe0f4d9e	-0.13994452
28	0xbc95a2ea	-0.01826616
29	0x3d3ff796	0.046866976
30	0x3d176177	0.036958184
31	0x3e001934	0.12509614
32	0xbdf86926	-0.121294305
33	0x3d9ad7e4	0.07560709
34	0x3d938ed1	0.072049744
35	0xbddc141c	-0.10746023
36	0xbd405856	-0.046959244
37	0xbe1b511d	-0.15167661
38	0x3e6584a8	0.22413886
39	0xbd30b8bf	-0.043144938
40	0xbdada4fd	-0.08478735
41	0x3ededf09	0.43529537
42	0x3e87dac6	0.26534098
43	0xbe0271fe	-0.12738797
44	0xbd5cf340	-0.05394292
45	0xbe0a6a99	-0.13517226
46	0x3e69e82a	0.2284247
47	0xbcb0fc2b	-0.021604618
48	0xbc901398	-0.017587468
49	0xbde358bf	-0.11100911
50	0xbe48a50f	-0.19594215
51	0x3eae5ef8	0.3405683
52	0x3c857e41	0.016295554
53	0xbdc213dc	-0.09476444
54	0x3d803e3d	0.06261871
55	0xbdd0171f	-0.1016066
56	0xbe13017e	-0.14356038
57	0xbd992b23	-0.07478931
58	0xbd4c9770	-0.04994911
59	0xbd9c3ca4	-0.07628754
60	0x3c4a5dde	0.012351481
61	0x3da6e7d8	0.081496894
62	0x3e0986ab	0.13430278
63	0xbd22b275	-0.03972097

fc3.weight f4 [4, 64]
0	0x3e7429e4	0.23844105
1	0x3e4e7da1	0.20165111
2	0x3da2441c	0.07923147
3	0xba8219fc	-0.0009925957
4	0x3e580dc1	0.21098997
5	0x3ef76fe9	0.48327568
6	0x3e213831	0.15744092
7	0xbeeaff03	-0.45897684
8	0x3dd95f03	0.10613825
9	0x3e00d7a5	0.12582262
10	0x3e6bc716	0.23025164
11	0x3e9bd797	0.3043792
12	0xbc9837ac	-0.018581234
13	0xbd8c0a60	-0.068379164
14	0xbd512207	-0.05105784
15	0x3ea7b611	0.32756093
16	0x3e236911	0.15958048
17	0x3e54c8e8	0.20779765
18	0x3c05a1df	0.008156269
19	0x3e3c3aec	0.18381852
20	0x3d8a740e	0.06760417
21	0x3da2c3cd	0.07947502
22	0x3d936317	0.07196634
23	0x3e0dc985	0.13846405
24	0xbde7643f	-0.11298417
25	0xbd5d1ae7	-0.053980734
26	0xbe95fd88	-0.29294991
27	0xbe00cab8	-0.12577331
28	0x3e87bff0	0.26513624
29	0x3e5a815e	0.21338412
30	0xbf0e55bf	-0.5559959
31	0x3e1da17d	0.15393634
32	0xbda4761c	-0.0803034
33	0x3e100c40	0.14067173
34	0x3d9c1b7c	0.0762243
35	0xbcba9bcb	-0.022779366
36	0x3e52b0d6	0.2057527
37	0xbdf835a5	-0.12119607
38	0x3ecb1d50	0.396708
39	0x3dd1972c	0.10233912
40	0x3d028134	0.0318615
41	0x3e118f0b	0.14214723
42	0x3db08c6d	0.08620534
43	0xbe6c1e78	-0.23058498
44	0xbd4d818d	-0.050172377
45	0xbd69da2f	-0.05709284
46	0x3e303b4d	0.17210121
47	0x3e682638	0.2267083
48	0xbe8b6b2c	-0.27230203
49	0x3e5d834e	0.2163212
50	0xbe761783	-0.24032407
51	0x3e0c8bd0	0.13725209
52	0x3e81562f	0.25261065
53	0xbe8891cd	-0.26673737
54	0x3ddd64ac	0.10810217
55	0x3e91de64	0.28489983
56	0xbe49c195	-0.19702752
57	0x3d1532bb	0.036425333
58	0x3e056aee	0.13029072
59	0x3db215e7	0.08695584
60	0xbdb959b6	-0.09050314
61	0x3f02be1b	0.5107133
62	0x3e59d344	0.21271998
63	0x3db8650a	0.09003647
64	0x3e7cf69c	0.24703449
65	0x3e77472d	0.24148245
66	0x3e2e5d52	0.17027786
67	0x3e714aa8	0.23563635
68	0xbdc5dcf4	-0.09661284
69	0x3f074c77	0.5285105
70	0xbd8dd24e	-0.06924878
71	0x3d8dd74a	0.06925829
72	0x3df73096	0.12069814
73	0x3dec72a8	0.115453064
74	0x3ec5ab0b	0.38607058
75	0x3eb76caa	0.35825092
76	0xbce66fad	-0.028129423
77	0xbd55f8a5	-0.05223908
78	0xbbfacf48	-0.0076541044
79	0x3f0f0444	0.55865884
80	0x3e03bdd4	0.12865382
81	0x3ec54848	0.3853171
82	0xbda9d3d6	-0.082923576
83	0x3dd09e54	0.10186449
84	0x3e135472	0.14387682
85	0x3e4d781a	0.20065346
86	0xbd337ca3	-0.043820035
87	0x3e53f663	0.20699458
88	0x3dd6da96	0.10490911
89	0xbd277027	-0.04087844
90	0x3d7a7107	0.061142948
91	0xbd679aea	-0.056544222
92	0x3e85b6cf	0.26116034
93	0x3e700ed0	0.2344315
94	0xbe437ca5	-0.19090517
95	0x3e0bf0a8	0.13666022
96	0xbe84360e	-0.2582249
97	0x3e09cd86	0.13457307
98	0x3deaf057	0.114716224
99	0xbd5345bf	-0.051580187
100	0x3e19aad4	0.15006572
101	0xbd21ac71	-0.039471094
102	0x3eb04482	0.34427267
103	0x3cf987bc	0.030460231
104	0x3e1d3dab	0.15355556
105	0x3e21b97e	0.15793416
106	0x3cc0b90c	0.023525737
107	0xbe22bf64	-0.15893322
108	0xbd9914c3	-0.07474663
109	0xbcf5d447	-0.030008448
110	0x3e22d665	0.15902098
111	0x3e0068c1	0.1253996
112	0xbe1097fe	-0.1412048
113	0x3c3837db	0.011243786
114	0xbe2f7e3d	-0.17138
115	0x3ce1539e	0.027505692
116	0x3e7637a5	0.24044664
117	0x3e990681	0.29887775
118	0x3e01b5b5	0.12666972
119	0x3e99582f	0.2995009
120	0xbe3dd028	-0.18536437
121	0xbe9b162a	-0.30290347
122	0x3d67b005	0.05656435
123	0xbedbce4c	-0.4293083
124	0xbe011177	-0.12604319
125	0x3eb48bc1	0.35262874
126	0x3e79c7fa	0.24392691
127	0x3d983083	0.07431128
128	0xbd05ca98	-0.03266391
129	0x3e2b29c0	0.16715145
130	0x3e947f58	0.29003406
131	0xbe50b770	-0.20382476
132	0x3e4e1eb7	0.20128904
133	0x3e246db9	0.16057481
134	0xbcdf0c3c	-0.027227513
135	0xbe7bc6d5	-0.24587567
136	0x3dabaf02	0.083829895
137	0x3e18137b	0.14851181
138	0x3d43dcd3	0.047818016
139	0x3e3c0a54	0.18363315
140	0x3e5774e7	0.21040688
141	0xbea02d52	-0.31284577
142	0xbd7581c4	-0.059938207
143	0x3f5779fd	0.84170514
144	0x3ee1514a	0.4400733
145	0x3f137866	0.5760559
146	0xbd724d5c	-0.059155807
147	0x3db66041	0.08905078
148	0x3dd6d320	0.10489488
149	0x3e3015ee	0.17195866
150	0xbe09ce92	-0.13457707
151	0x3ea846c3	0.32866487
152	0x3d6ce220	0.057832837
153	0xbe552c5f	-0.20817707
154	0xbeabc76e	-0.3355059
155	0xbdb13bc1	-0.08653975
156	0x3e274ed9	0.16338672
157	0x3ecc19b8	0.39863372
158	0xbd88851c	-0.066660136
159	0x3cd0de07	0.025496496
160	0xbe99ab7d	-0.30013648
161	0x3c89b5f8	0.016810402
162	0x3e24decd	0.16100617
163	0x3de25187	0.11050706
164	0x3bce8960	0.0063029975
165	0xbd8af76f	-0.067854755
166	0x3e15b5ad	0.14620085
167	0x3e8a7f90	0.27050447
168	0xb89f5f30	-7.599441e-05
169	0x3e432289	0.19056143
170	0x3e08e43b	0.13368313
171	0x3bbd8e17	0.0057847607
172	0x3d86f287	0.06589227
173	0xbb7aaff6	-0.0038251854
174	0x3e21a78a	0.15786567
175	0x3eadb92e	0.33930343
176	0xbbe53c5b	-0.0069957203
177	0x3e3d5cef	0.18492483
178	0xbebde4d1	-0.37088636
179	0x3e3cc7a4	0.18435532
180	0x3e2edeab	0.17077129
181	0x3e897c27	0.26852533
182	0x3d9ff1b5	0.07809774
183	0x3e9fa291	0.31178716
184	0xbe931317	-0.28725502
185	0x3de6cd1b	0.112695895
186	0x3cb5193f	0.022106765
187	0xbd24f7ad	-0.040275265
188	0x3c8aa272	0.016923163
189	0x3f097c96	0.5370573
190	0xbb06c4b3	-0.002056402
191	0x3e055064	0.13018948
192	0x3e508399	0.203627
193	0x3e4a8afd	0.19779582
194	0x3d4d577f	0.05013227
195	0xbee213ae	-0.4415564
196	0xbf25de03	-0.6479189
197	0x3f52fac9	0.8241392
198	0xbde02b90	-0.10945809
199	0xbd2bf7ba	-0.041984297
200	0x3df62659	0.12019033
201	0x3e2222db	0.15833609
202	0x3eb8986d	0.36053792
203	0x3e28771e	0.1645169
204	0x3e25e2be	0.16199777
205	0x3ddb389d	0.107041575
206	0x3d55adbc	0.05216764
207	0xbdebe46e	-0.11518179
208	0x3e8383ed	0.2568659
209	0x3e2c0d28	0.16801894
210	0x3da2241a	0.07917042
211	0x3e29c9d5	0.16580899
212	0x3e004a2f	0.12528299
213	0x3e299ba8	0.16563284
214	0xbdafac1f	-0.08577751
215	0x3e767cb9	0.24071015
216	0x3e8b34ca	0.27188712
217	0x3c5e9886	0.013586169
218	0x3dd5adad	0.10433517
219	0xbe170ba6	-0.14750537
220	0x3e732795	0.23745568
221	0x3d48cd6a	0.049024023
222	0xbe4bd4ae	-0.1990535
223	0x3de57a9d	0.11205027
224	0xbdae3673	-0.08506479
225	0x3e85bbd5	0.26119867
226	0x3d5c7d3d	0.053830374
227	0x3c757b9a	0.014983082
228	0xbda64bfb	-0.08119961
229	0x3db3dcb4	0.0878233
230	0x3e8b24bf	0.27176473
231	0x3e84f785	0.25970092
232	0xbe0cea99	-0.13761367
233	0x3e3594f9	0.1773261
234	0x3df65645	0.12028173
235	0xbefe342f	-0.49649188
236	0x3ea5011f	0.32227418
237	0xbe587909	-0.21139921
238	0x3de364a2	0.111031786
239	0x3e7a78e1	0.24460174
240	0xbd9dc018	-0.077026546
241	0x3df5aef4	0.1199626
242	0x3e408658	0.18801248
243	0x3d90019e	0.070315585
244	0x3e5079cc	0.20358962
245	0x3d645e1a	0.055753805
246	0x3e986af0	0.29769087
247	0x3efa7795	0.4891936
248	0xbe996f9d	-0.29967967
249	0xbe86e499	-0.2634628
250	0xbd3a3c78	-0.045467824
251	0x3d07a016	0.033111654
252	0xbe7400e3	-0.23828463
253	0x3e80632e	0.25075668
254	0x3e052939	0.13004006
255	0x3e3c3d45	0.18382747

fc3.bias f4 [4]
0	0x3e888d69	0.26670387
1	0x3e788a28	0.24271452
2	0x3e166691	0.14687563
3	0x3def557c	0.11686227
